aicandy_lstm_checkpoint_xpisdedn.pth (torch, 613152 bytes, 27 tensors)

lstm.weight_ih_l0 f4 [256, 1]
0.20683116 -0.0047714086 0.122949794 0.17245786 0.035784543 0.07073461 0.07801698 0.06969516
0.24119993 0.07919664 0.14699903 0.08383849 0.24010547 -0.0771814 0.14335427 0.019344073
0.14610873 0.1291837 0.1746737 0.12897943 0.13814647 0.20640367 0.19001964 0.009425984
0.13172528 0.03411174 0.15544102 0.053367916 0.003707287 0.21769151 0.07910127 0.15526609
0.1302859 0.15900534 0.0724181 0.20339155 0.14477888 0.11972549 0.14635473 0.16778415
0.07270668 -0.01765865 0.18772885 0.14501864 0.024672976 0.16888268 0.052855514 0.10804004
0.034950677 0.13915403 0.05428547 0.12528148 0.04429898 -0.13288426 0.2042197 0.0628168
0.0760788 0.10527943 0.1281954 0.109890826 0.14245643 0.16470094 0.073450625 -0.19320497
-0.06994439 -0.102077946 0.095999815 0.11718199 -0.04866979 0.029263938 -0.042466752 0.054030444
-0.00805617 0.088507794 0.016902125 -0.05883401 0.011861929 -0.110985816 -0.005635316 -0.029858958
0.1087737 0.092927925 -0.06795843 0.11845842 -0.075507686 -0.09096139 0.011966042 -0.09203339
0.10483143 0.15174109 -0.036580805 -0.13878955 -0.11729813 -0.06109112 -0.00527461 -0.07379667
0.13834402 0.10337301 0.103380725 0.097670436 0.020967526 0.15926974 0.03816399 0.058014598
-0.0591445 -0.07281997 -0.08483319 0.0759086 0.08540558 0.0038702032 -0.01174892 0.12001959
0.14632322 0.15118681 -0.030213576 0.07479778 0.088866875 -0.15811993 0.03177327 -0.058322858
0.16941518 0.09450599 0.070765674 -0.014966839 -0.05931045 0.12836468 0.013718566 -0.06582629
0.21616018 -0.19572027 0.15256369 0.18975636 0.14006202 -0.18399926 0.23709385 0.17704771
0.19830172 -0.2225231 0.15933518 0.087705605 0.24754311 0.08196729 0.16933057 0.15795028
-0.22862075 0.2031322 0.19136387 -0.14463769 0.18649992 -0.21910882 -0.18870841 -0.13184054
-0.27767146 -0.18168691 0.23130673 -0.21865223 0.23112024 -0.2170781 0.18336073 -0.2200182
0.19603455 -0.1906334 -0.22612563 -0.16919802 0.18760267 -0.23265916 -0.12059639 -0.1837514
0.046576727 -0.16524932 0.19725482 -0.15898947 -0.19668368 0.19612148 0.23565175 -0.22265708
-0.13760784 -0.1681765 -0.1636306 0.19634937 0.14163943 -0.20740949 0.21521252 0.2174818
0.17148992 -0.16625436 -0.16629395 -0.18550444 0.1864705 -0.20125645 -0.16516173 -0.19206442
0.18975501 0.06274716 0.19246696 0.21652943 0.14247534 0.13030723 0.15521444 -0.005987384
0.16492194 0.0756399 0.17567907 0.09133841 0.14766091 -0.052584175 0.10635625 0.080603935
0.10807837 0.18993132 0.19252893 0.07787422 0.17656931 0.22166066 0.23970924 -0.12550242
0.18342441 0.15890454 0.14261706 0.036989287 0.05996115 0.2799778 0.15683964 0.09807675
0.18796492 0.07572646 0.12489695 0.23237677 0.14467216 0.1928148 0.07745651 0.1453372
0.049754743 -0.07770281 0.17542629 0.20767705 0.09130756 0.14582597 0.030013151 0.10468438
0.14195074 0.05379439 -0.18789485 0.16795485 0.073531926 -0.16864492 0.17508772 0.10948288
0.15848659 0.1643368 0.078391135 0.22992104 0.17098364 0.112590134 0.046136465 -0.21360686
00000000: 8ccb 533e 7a59 9cbb 1acd fb3d cb98 303e
00000010: d092 123d 4fdd 903d 5ec7 9f3d 56bc 8e3d
00000020: 1dfd 763e d931 a23d ea86 163e 84b3 ab3d
00000030: 35de 753e 4811 9ebd 76cb 123e 7677 9e3c
00000040: 879d 153e bb48 043e aadd 323e 2f13 043e
00000050: 4576 0d3e 7c5b 533e 8294 423e 716f 1a3c
00000060: fee2 063e c0b8 0b3d ee2b 1f3e 5198 5a3d
00000070: f4f5 723b 86ea 5e3e d9ff a13d 13fe 1e3e
00000080: ab69 053e 4cd2 223e f14f 943d e045 503e
00000090: ea40 143e a332 f53d 04de 153e 9ccf 2b3e
000000a0: 3de7 943d e0a8 90bc fe3b 403e c47f 143e
000000b0: fb1e ca3c 95ef 2c3e 067f 583d 1944 dd3d
000000c0: 7128 0f3d 657e 0e3e 715a 5e3d ca49 003e
000000d0: d972 353d d012 08be f81e 513e 18a6 803d
000000e0: 34cf 9b3d be9c d73d a845 033e 710e e13d
000000f0: 19e0 113e 5da7 283e 486d 963d 86d7 45be
00000100: 013f 8fbd 3e0e d1bd 8d9b c43d 1cfd ef3d
00000110: f959 47bd edba ef3c 9ef1 2dbd 074f 5d3d
00000120: 07fe 03bc 9343 b53d 5376 8a3c eefb 70bd
00000130: 8958 423c 884c e3bd 75a8 b8bb c69a f4bc
00000140: bfc4 de3d ff50 be3d ca2d 8bbd 549a f23d
00000150: c6a3 9abd f749 babd 380d 443c 017c bcbd
00000160: dcb1 d63d 0462 1b3e c1d5 15bd d91e 0ebe
00000170: 013a f0bd af3a 7abd a3d6 acbb b522 97bd
00000180: 0eaa 0d3e 3bb5 d33d 46b9 d33d 7007 c83d
00000190: 17c4 ab3c 9b17 233e d851 1c3d b7a0 6d3d
000001a0: 8141 72bd a322 95bd 06bd adbd f875 9b3d
000001b0: 1fe9 ae3d 3ca3 7d3b 8b7e 40bc d5cc f53d
000001c0: c1d5 153e b7d0 1a3e 7682 f7bc 942f 993d
000001d0: d6ff b53d 31ea 21be b024 023d f3e3 6ebd
000001e0: 2c7b 2d3e 5b8c c13d 98ed 903d 7937 75bc
000001f0: 84ef 72bd 0872 033e d6c3 603c efcf 86bd
00000200: 1859 5d3e e56a 48be a839 1c3e 7e4f 423e
00000210: 6b6c 0f3e 4d6a 3cbe bbc8 723e ff4b 353e
00000220: 9b0f 4b3e 18dd 63be c328 233e ff9e b33d
00000230: f17b 7d3e 77de a73d fe64 2d3e b8bd 213e
00000240: 8f1b 6abe e301 503e e4f4 433e e71b 14be
00000250: d6f9 3e3e 105e 60be c73c 41be 3501 07be
00000260: f42a 8ebe 220c 3abe acdb 6c3e 5fe6 5fbe
00000270: c9aa 6c3e b949 5ebe eac2 3b3e 734c 61be
00000280: 48bd 483e 6735 43be 7a8d 67be 3f42 2dbe
00000290: ea1a 403e 343e 6ebe 3dfb f6bd 5429 3cbe
000002a0: 3dc7 3e3d 1e37 29be 2bfd 493e 23ce 22be
000002b0: 7267 49be 12d4 483e b14e 713e 3800 64be
000002c0: 12e9 0cbe 7636 2cbe c88e 27be cf0f 493e
000002d0: ed09 113e 2763 54be ac60 5c3e 8db3 5e3e
000002e0: 0e9b 2f3e 953e 2abe f648 2abe e0f4 3dbe
000002f0: 1ff2 3e3e 2c16 4ebe 2820 29be 89ac 44be
00000300: 234f 423e 9581 803d 0f16 453e e4b9 5d3e
00000310: 0ee5 113e 426f 053e 89f0 1e3e d131 c4bb
00000320: 4ce1 283e 18e9 9a3d 37e5 333e a20f bb3d
00000330: 6c34 173e 8162 57bd 4ed1 d93d ad13 a53d
00000340: 3158 dd3d 5b7d 423e 4e26 453e 857c 9f3d
00000350: 96ce 343e 03fb 623e 5776 753e b583 00be
00000360: 9cd3 3b3e dfb7 223e 350a 123e 1482 173d
00000370: d399 753d 4059 8f3e 929a 203e 77dc c83d
00000380: e079 403e 7916 9b3d f9c9 ff3d 2df4 6d3e
00000390: f024 143e 3e71 453e 85a1 9e3d 46d3 143e
000003a0: a1cb 4b3d a722 9fbd f3a2 333e 4ba9 543e
000003b0: 75ff ba3d 6753 153e 24de f53c c464 d63d
000003c0: 895b 113e 8257 5c3d 8267 40be 5bfc 2b3e
000003d0: e897 963d 41b1 2cbe 324a 333e 8f38 e03d
000003e0: 4f4a 223e e847 283e 888b a03d 6c70 6b3e
000003f0: 5616 2f3e a895 e63d 97f9 3c3d c2bb 5abe

lstm.weight_hh_l0 f4 [256, 64]
0.058971915 -0.031643465 0.1293355 0.05240927 0.074639134 -0.05304734 0.06332686 0.04771782
0.07902711 -0.0452723 0.071828224 0.08359944 0.051477607 0.081990376 0.086089395 0.05999132
-0.06383807 0.07207144 0.05265801 -0.08668996 0.091059454 -0.037120387 -0.06281307 -0.011698523
-0.07779519 -0.053518157 0.05988759 -0.031132918 0.00890341 -0.033015847 0.07274881 -0.032553516
0.059898563 -0.07048348 -0.043467656 -0.07653117 0.04871549 -0.07649033 -0.08701755 -0.05980736
0.0769871 -0.052863427 0.053382266 -0.08098322 -0.048847128 0.082571276 0.08674271 -0.03401015
-0.08018916 -0.06729092 -0.03948275 0.051745407 0.08955574 -0.017872743 0.04571795 0.06654244
0.07426194 -0.056542084 -0.066971175 -0.051716737 0.09699952 -0.083358936 -0.06919091 -0.011535657
0.0037602242 -0.009105015 0.018267442 0.009695214 0.015271287 -0.013112529 0.011598533 0.014886165
-0.0010135965 -0.012091572 0.0146101685 0.014930722 0.01047383 -0.0154141085 0.008885787 0.011821882
-0.012025161 0.012481872 0.012572098 -0.015562126 0.0036845629 -0.010405514 -0.009476089 -0.013542771
-0.015641939 -0.012867105 0.013720101 -0.0072820783 0.007109623 -0.009557294 0.014049587 -0.011611621
0.014467164 -0.010928594 -0.009695639 -0.001597187 0.01223777 -0.010212415 -0.017091015 -0.010105638
0.015268645 -0.010766799 0.010657908 -0.014607601 -0.0114933755 0.014651941 0.015403672 -0.0112469755
-0.0053230235 -0.014267087 -0.00940303 0.012241778 0.015538955 -0.011533593 0.010238828 0.01194845
0.016390365 -0.013787068 -0.015607805 -0.012655986 0.016570343 -0.0145795625 -0.0122539215 -0.011533995
-0.0064589195 -3.832891e-05 -0.01246183 -0.00044346607 0.0036844881 0.0011039528 0.0029634687 0.003375057
-0.009406076 0.0006444962 0.0002968453 0.0023615093 0.0025786255 0.009236165 -0.004436544 0.0019753736
-0.00062549993 0.0010552339 0.0028780587 0.0022919672 -0.0033202611 -0.0014152809 0.0053064507 -0.012320164
-0.0030426064 -0.004208225 0.0067273006 -0.004274558 0.006903961 -0.0027546105 0.0035726554 -0.0049573802
-7.663328e-07 0.00012555899 -0.0028902695 0.011964004 0.0028063066 0.0011237907 -0.0017966232 0.00057916204
0.0021407937 -0.0007205678 0.00091993454 -0.00032823806 0.00036057897 -0.0024308355 0.003767807 -0.0025399874
0.005065555 -0.0031528918 -0.01146996 -0.0006449287 0.005760102 -0.0070271483 0.0016055596 0.0032992184
-0.00058897556 0.002602102 -0.0029771305 -0.0043055033 0.006564284 0.00232979 -0.001951609 -0.0123670455
0.000704924 -0.008620858 0.020789176 0.0035709273 0.01803958 -0.014201523 0.00646937 0.0096020885
-0.0036708026 -0.015114485 0.022568328 0.019973204 0.007581369 -0.03896279 0.01846432 0.009649699
-0.018447671 0.01060249 0.01148738 -0.025097268 -0.0028311508 -0.008159896 -0.007026721 0.010013313
-0.014218849 -0.018460535 0.023555573 -0.0068391594 0.0055210623 -0.0069742305 0.01826776 -0.008567436
0.008714101 -0.006082308 -0.015408826 0.004408711 0.008549999 -0.008848884 -0.027059175 -0.014968077
0.015460105 -0.0083890995 0.009604265 -0.023546688 -0.010551298 0.02710631 0.02854337 -0.008775133
0.0026450958 -0.011823798 0.0030593972 0.011819681 0.016157648 -0.0048909825 0.010647269 0.009430698
0.017373847 -0.009792856 -0.020593517 -0.0066621597 0.00805313 -0.009821551 -0.009260194 0.0037714045
00000000: 898c 713d 949c 01bd 8670 043e 1aab 563d
00000010: 67dc 983d 2b48 59bd 83b1 813d c373 433d
00000020: f7d8 a13d 726f 39bd ad1a 933d 2f36 ab3d
00000030: 2fda 523d 92ea a73d a34f b03d 75b9 753d
00000040: 89bd 82bd 319a 933d edaf 573d 818a b1bd
00000050: 617d ba3d 8c0b 18bd 24a4 80bd 29ab 3fbc
00000060: 1653 9fbd db35 5bbd b14c 753d 760a ffbc
00000070: 9cdf 113c a03b 07bd 54fd 943d d656 05bd
00000080: 3258 753d a559 90bd 240b 32bd 60bc 9cbd
00000090: e589 473d f6a6 9cbd 4236 b2bd 90f8 74bd
000000a0: 6aab 9d3d 5287 58bd 5da7 5a3d 88da a5bd
000000b0: ed13 48bd 211b a93d 29a6 b13d 3a4e 0bbd
000000c0: 373a a4bd d2cf 89bd aab8 21bd fef2 533d
000000d0: 0069 b73d dc69 92bc bf42 3b3d 6747 883d
000000e0: a516 983d ac98 67bd 2f28 89bd eed4 53bd
000000f0: afa7 c63d 17b8 aabd f7b3 8dbd 0d00 3dbc
00000100: 186e 763b 332d 15bc 9aa5 953c add8 1e3c
00000110: 6c34 7a3c efd5 56bc c607 3e3c 1ae5 733c
00000120: a8da 84ba bb1b 46bc 7d5f 6f3c fd9f 743c
00000130: 6d9a 2b3c 758b 7cbc b195 113c 91b0 413c
00000140: 2e05 45bc c480 4c3c 33fb 4d3c 4af8 7ebc
00000150: b578 713b e47b 2abc 9941 1bbc 80e2 5dbc
00000160: 8623 80bc 8dd0 52bc 46ca 603c 809e eebb
00000170: d7f7 e83b 3296 1cbc 3d30 663c ab3e 3ebc
00000180: af07 6d3c d80d 33bc 75da 1ebc b458 d1ba
00000190: ed80 483c f951 27bc 7502 8cbc 1e92 25bc
000001a0: 5729 7a3c 3a67 30bc 829e 2e3c b854 6fbc
000001b0: b64e 3cbc b20e 703c af5f 7c3c 3c45 38bc
000001c0: c26c aebb 80c0 69bc 2b0f 1abc bd91 483c
000001d0: 1a97 7e3c 65f7 3cbc c2c0 273c 6ec3 433c
000001e0: 1645 863c 28e3 61bc e1b7 7fbc 0d5b 4fbc
000001f0: 87be 873c 1edf 6ebc acc4 48bc 15f9 3cbc
00000200: 58a5 d3bb 5bc3 20b8 b42c 4cbc 0281 e8b9
00000210: 7477 713b 82b2 903a c136 423b 0f30 5d3b
00000220: f11b 1abc 68f3 283a e7a1 9b39 8dc3 1a3b
00000230: 28fe 283b 4953 173c 6e60 91bb 4575 013b
00000240: 97f8 23ba c64f 8a3a d09d 3c3b d434 163b
00000250: bd98 59bb f280 b9ba bce1 ad3b 83da 49bc
00000260: 7766 47bb 26e5 89bb b070 dc3b 9711 8cbb
00000270: 9f3a e23b b286 34bb 3623 6a3b 8571 a2bb
00000280: fdb5 4db5 7ca8 0339 ad6a 3dbb ab04 443c
00000290: 03ea 373b 294c 933a ac7c ebba e8d2 173a
000002a0: 8f4c 0c3b 7de4 3cba c327 713a 5e17 acb9
000002b0: 170c bd39 a74e 1fbb 50ed 763b eb75 26bb
000002c0: f5fc a53b bfa0 4ebb 80ec 3bbc 6f10 29ba
000002d0: 3dbf bc3b fe43 e6bb a471 d23a b337 583b
000002e0: 7b65 1aba 0788 2a3b f61b 43bb 2e15 8dbb
000002f0: 3519 d73b 64af 183b 22cd ffba 269f 4abc
00000300: a6ca 383a 803e 0dbc 104e aa3c 3806 6a3b
00000310: bec7 933c 81ad 68bc 02fd d33b 1452 1d3c
00000320: d991 70bb bfa2 77bc 37e1 b83c d89e a33c
00000330: 226d f83b 7297 1fbd 7c42 973c c519 1e3c
00000340: 921f 97bc 11b6 2d3c 9035 3c3c c998 cdbc
00000350: d48a 39bb 16b1 05bc 6840 e6bb e10e 243c
00000360: 2df6 68bc 8c3a 97bc 9ef7 c03c 071b e0bb
00000370: 07ea b43b 1688 e4bb 45a6 953c 6e5e 0cbc
00000380: 97c5 0e3c 194e c7bb 4d75 7cbc f376 903b
00000390: 4c15 0c3c e9fa 10bc 34ab ddbc aa3c 75bc
000003a0: 614c 7d3c 6f72 09bc 355b 1d3c fce4 c0bc
000003b0: 5adf 2cbc 0d0e de3c c9d3 e93c 93c5 0fbc
000003c0: 5859 2d3b 9ab8 41bc 2b80 483b 56a7 413c
000003d0: 0b5d 843c 8944 a0bb e271 2e3c 3783 1a3c
000003e0: 9953 8e3c 3772 20bc bcb3 a8bc 3f4e dabb
000003f0: 46f1 033c 92ea 20bc 12b8 17bc ab29 773b

lstm.bias_ih_l0 f4 [256]
-0.07484834 0.12952422 -0.021644551 0.09670256 -0.022213321 0.015834047 0.046440035 0.020111328
-0.09449989 0.09447418 -0.06366794 0.002637347 0.2327081 0.029690597 0.06654489 0.034962896
0.10712534 0.15029272 0.14683977 0.031314105 0.049805395 0.19175865 0.04018762 0.06495286
0.24648665 0.079342335 0.14454839 0.13613227 0.21940584 0.31650934 0.047263533 0.05517845
0.043901216 0.124003805 0.11170269 -0.03146196 0.0783335 0.0894342 0.057503663 0.11893784
0.033512972 -0.027056785 0.1670558 -0.04808529 0.06812921 0.124495745 0.16941907 0.16837959
0.019923998 -0.034060508 0.09813097 0.078834236 -0.02950835 -0.044373006 0.052236058 0.12629557
0.072683446 0.06336977 0.00092037517 0.07683279 0.072717756 0.13953368 0.09045743 0.009679682
-0.1965968 -0.07198067 -0.17254551 -0.1055818 -0.028667716 0.028222395 -0.046263628 -0.0029042647
-0.06738621 -0.045461092 -0.15607308 -0.09223774 -0.10747163 0.02769731 -0.045140825 -0.014734669
-0.0895315 -0.17293544 -0.15415205 -0.116835356 -0.16935533 -0.009374814 0.0042621135 0.043999527
-0.09508369 -0.07847543 -0.10772756 -0.16616483 -0.034744866 -0.09845765 -0.06496694 -0.121868305
-0.15111873 -0.067511946 -0.00840753 -0.14339204 -0.043428604 -0.15657665 -0.02704602 -0.15029845
-0.0024619317 -0.08503912 -0.061533954 -0.092444815 -0.09973199 -0.032807957 -0.10070454 -0.17098816
0.0006650472 -0.019339332 -0.03780787 -0.04792266 -0.060847443 -0.029911892 -0.05976815 -0.080803506
-0.010517646 -0.038648207 0.017434424 0.013117905 -0.0966107 -0.12625264 -0.021381242 -0.025393955
-0.05669865 -0.03264144 0.020221889 -0.033544865 -0.051818077 -0.060269892 0.042304773 0.101496376
-0.11189803 -0.04541314 -0.0063755973 0.066555895 0.04008225 -0.094202645 -0.0531603 0.00024575496
-0.046599735 -0.014427284 -0.04553044 0.041030236 -0.089855984 -0.005006979 0.06630312 -0.09662188
-0.07729933 0.012765109 0.0089909835 -0.069025055 0.042251118 0.04175747 -0.044479888 0.10876562
0.06571166 -0.050219033 0.029429838 0.11602866 -0.08257785 0.0021184932 0.041647658 0.03688042
-0.007582757 -0.090232916 0.00095616636 0.07447524 0.0011026629 -0.006505672 -0.0014408857 0.007709969
0.05432066 -0.09570579 -0.04082933 -0.08978783 -0.009558937 -0.027754785 0.024729459 0.007959025
-0.11805504 -0.047328174 -0.03352756 0.06875221 0.08703931 0.00621626 -0.08046969 -0.015506867
0.08446978 0.14279342 -0.031606767 0.10670369 -0.009753255 0.03467695 0.073200084 0.036473434
-0.03999718 0.15491132 -0.05968173 0.04534515 0.23384388 0.057116654 0.12913978 0.099443465
0.19206499 0.11799077 0.15839395 -0.013904321 0.021901714 0.17171733 -0.044012178 0.02732691
0.2615547 0.13724656 0.013932126 0.16885126 0.22407858 0.34121135 0.083651714 0.17923358
0.08766749 0.14361803 0.17194688 -0.0626777 0.11259516 0.04197633 -0.034451094 0.09913665
-0.099003315 0.08557416 0.120050654 0.057150148 0.11702422 0.14952587 0.14423569 0.15882543
0.06279569 0.101181574 -0.07586157 0.052161023 -0.054394685 -0.0375295 0.089139916 0.14680241
0.0886768 -0.021542272 0.11433985 0.009034866 0.043577477 0.124414325 0.13174984 -0.034342695
00000000: 164a 99bd ffa1 043e ea4f b1bc fe0b c63d
00000010: b6f8 b5bc 67b6 813c e837 3e3d 83c0 a43c
00000020: 2989 c1bd ae7b c13d 5664 82bd 57d7 2c3b
00000030: 084b 6e3e b239 f33c b048 883d 4135 0f3d
00000040: 8864 db3d 56e6 193e 2a5d 163e 3843 003d
00000050: be00 4c3d 615c 443e c69b 243d 0106 853d
00000060: ff66 7c3e 3c7e a23d 7e04 143e 4266 0b3e
00000070: edab 603e 830d a23e 6897 413d cc02 623d
00000080: c3d1 333d b5f5 fd3d 61c4 e43d 42de 00bd
00000090: 506d a03d 4729 b73d f688 6b3d af95 f33d
000000a0: e644 093d 31a6 ddbc ad10 2b3e 15f5 44bd
000000b0: 5487 8b3d a0f7 fe3d 317c 2d3e b36b 2c3e
000000c0: a737 a33c 0883 0bbd e4f8 c83d d873 a13d
000000d0: 7fbb f1bc 78c0 35bd 7af5 553d a053 013e
000000e0: 0fdb 943d 03c8 813d 5545 713a 835a 9d3d
000000f0: 0ced 943d ebe1 0e3e bf41 b93d 8797 1e3c
00000100: ac50 49be 9a6a 93bd c5af 30be 453b d8bd
00000110: 8fd8 eabc a732 e73c ee7e 3dbd 7a55 3ebb
00000120: c801 8abd 6935 3abd 9fd1 1fbe 24e7 bcbd
00000130: 161a dcbd 78e5 e23c 96e5 38bd ae69 71bc
00000140: 4b5c b7bd fd15 31be 09da 1dbe 6047 efbd
00000150: 7c6b 2dbe d298 19bc 33a9 8b3b d938 343d
00000160: 3dbb c2bd bab7 a0bd 44a0 dcbd 1d27 2abe
00000170: a250 0ebd 2aa4 c9bd 630d 85bd 1796 f9bd
00000180: debe 1abe b443 8abd bdbf 09bc 5dd5 12be
00000190: 31e2 31bd a155 20be 9d8f ddbc d6e7 19be
000001a0: 5c58 21bb fd28 aebd 070b 7cbd b553 bdbd
000001b0: 4940 ccbd a361 06bd 2f3e cebd 8517 2fbe
000001c0: 9056 2e3a 856d 9ebc 6ddc 1abd 8d4a 44bd
000001d0: 2b3b 79bd c909 f5bc 73cf 74bd 4f7c a5bd
000001e0: 3452 2cbc 954d 1ebd a3d2 8e3c 7bec 563c
000001f0: d5db c5bd 5f48 01be b727 afbc fc06 d0bc
00000200: d83c 68bd 08b3 05bd 60a8 a53c 5766 09bd
00000210: 313f 54bd 90dd 76bd c547 2d3d 55dd cf3d
00000220: cb2a e5bd 2103 3abd 63ea d0bb 754e 883d
00000230: 492d 243d 51ed c0bd 9dbe 59bd acd8 8039
00000240: 5ddf 3ebd 6a60 6cbc 207e 3abd 520f 283d
00000250: 6a06 b8bd 9611 a4bb eec9 873d b1e1 c5bd
00000260: 1c4f 9ebd bf24 513c eb4e 133c 025d 8dbd
00000270: 820f 2d3d e209 2b3d 8b30 36bd 82c0 de3d
00000280: d693 863d 79b2 4dbd d816 f13c 6fa0 ed3d
00000290: 931e a9bd 6bd6 0a3b bc96 2a3d ec0f 173d
000002a0: c778 f8bb 09cc b8bd 3da7 7a3a 7a86 983d
000002b0: 3a87 903a 882d d5bb 1adc bcba e8a3 fc3b
000002c0: 577f 5e3d 6601 c4bd a83c 27bd afe2 b7bd
000002d0: 169d 1cbc 015e e3bc 6f95 ca3c 9266 023c
000002e0: d7c6 f1bd 30db 41bd 3254 09bd f5cd 8c3d
000002f0: aa41 b23d c5b1 cb3b 4bcd a4bd 8410 7ebc
00000300: 7efe ac3d 7038 123e 1976 01bd 7787 da3d
00000310: 1ecc 1fbc 6b09 0e3d ede9 953d 2b65 153d
00000320: 15d4 23bd 13a1 1e3e d474 74bd d6bb 393d
00000330: c574 6f3e 27f3 693d 383d 043e 04a9 cb3d
00000340: afac 443e 25a5 f13d 0632 223e f3ce 63bc
00000350: 396b b33c abd6 2f3e 1d46 34bd afdc df3c
00000360: 7fea 853e 5d8a 0c3e 9243 643c 58e7 2c3e
00000370: db74 653e 41b3 ae3e 9751 ab3d 0289 373e
00000380: 038b b33d 9b10 133e d812 303e 2a5d 80bd
00000390: 4b98 e63d 5fef 2b3d 971c 0dbd 2808 cb3d
000003a0: 40c2 cabd 8141 af3d 1edd f53d 4616 6a3d
000003b0: 65aa ef3d 4f1d 193e 85b2 133e 22a3 223e
000003c0: 079b 803d 4938 cf3d 505d 9bbd cca6 553d
000003d0: f6cc 5ebd 88b8 19bd fd8e b63d 5f53 163e
000003e0: 2f9c b53d 6b79 b0bc 032b ea3d f906 143c
000003f0: 4c7e 323d f0cc fe3d 6ee9 063e edaa 0cbd

lstm.bias_hh_l0 f4 [256]
-0.055314623 0.14374739 -0.04424554 0.19600913 0.08112223 0.11634525 0.08901098 0.10459111
0.022952063 0.07350774 0.051431052 -0.070608065 0.2870314 0.07410077 0.046962906 -0.013553196
0.060739975 0.109080985 0.13592343 0.06802617 0.006952061 0.16694531 0.091072716 0.079449415
0.34512666 0.026304075 0.07044839 0.1628804 0.12959638 0.22737575 -0.0029168297 0.17657048
-0.012240227 0.14335388 0.16029459 0.016474701 0.0059240535 0.03838893 0.0128651 0.12391838
-0.049779296 0.03117245 0.15021951 -0.026575701 0.075564064 0.12306331 0.12675546 0.2986974
0.084529474 0.11645568 0.14834444 0.13206723 0.017116716 -0.007728122 0.11738694 0.1137989
0.015157396 0.022641795 0.04308442 0.10863416 0.048706483 0.1500798 0.021277744 0.10782662
-0.07226492 -0.14066118 -0.13793515 0.020721046 -0.13129564 -0.08150626 -0.08491953 0.006840565
-0.09620861 -0.15062739 -0.050845712 -0.115921386 -0.12601353 0.12023232 -0.029229794 -0.13138975
-0.07485544 -0.16470887 -0.16514088 -0.032483686 -0.12272574 -0.06125673 -0.10935163 0.052626926
-0.0765634 -0.12442706 -0.15485735 -0.07241819 -0.054242652 -0.03580332 -0.11349389 -0.12506618
-0.050627843 -0.12234519 -0.024802973 -0.0581985 -0.06330189 -0.04524626 -0.14380124 0.014447162
-0.036751736 -0.14505191 -0.13576154 -0.035469525 -0.094075866 -0.114218645 -0.16486423 -0.09134343
-0.14424455 -0.1358347 0.021525413 -0.15533257 -0.13540347 0.023153534 -0.09066581 -0.16402294
-0.13624214 -0.034108713 -0.011148697 -0.12252537 -0.13641232 -0.097241126 -0.04165868 -0.07699806
-0.08453143 0.041518617 -0.03449986 0.011282807 0.08710219 0.07224904 -0.05207582 -0.07153099
-0.111128345 0.023165949 0.03375261 -0.075406656 -0.024581345 -0.094775654 -0.007398388 0.004229621
0.037331924 0.01944918 0.02269502 -0.04565081 -0.037827816 0.007832055 -0.0024080642 0.019482072
0.07963824 -0.017821342 0.03666707 0.03757752 -0.009229724 -0.010942389 0.05127194 -0.088791765
-0.10006307 0.042265337 -0.047884934 0.06598841 0.08755349 0.056971077 -0.045784578 -0.024796393
0.049718346 0.07745146 -0.022324458 -0.059851117 0.016822359 -0.010275445 0.03304693 0.001285608
0.046464827 0.09013578 -0.010098476 0.08021499 0.026019683 -0.015888834 -0.052954916 -0.031720046
0.10270026 0.059311923 0.026839206 -0.059611883 -0.07616961 0.007630355 0.082413174 -0.09076391
0.023734057 0.09783623 0.045386612 0.13517173 0.04742905 0.02388433 0.16255341 0.033949032
-0.009895127 0.14880787 0.06950578 -0.06418982 0.17734466 -0.0030895802 0.07609634 0.060244802
0.11853046 0.11545819 0.1398038 0.03514752 0.059294026 0.15740979 -0.05040435 0.08165225
0.3420981 -0.020339085 0.18474047 -0.0018377398 0.18279292 0.28546464 0.07387034 0.13113973
0.14053604 0.09807435 0.19397695 0.0066502416 0.041698735 0.02593446 -0.031573445 0.10738758
-0.045276925 -0.00077027176 0.19811824 0.10211497 0.18320045 0.07238762 0.05813225 0.27503157
0.051853668 0.13310808 -0.03166837 0.018051708 0.013959083 0.014298085 0.07813484 0.16879204
-0.027216138 -0.046867095 -0.0024066109 0.11375273 0.016367448 0.13009453 0.045284703 0.007630386
00000000: 9691 62bd 8432 133e d03a 35bd 9eb6 483e
00000010: 6923 a63d 6b46 ee3d 644b b63d dd33 d63d
00000020: f705 bc3c 3a8b 963d 5ea9 523d f69a 90bd
00000030: c8f5 923e 25c2 973d 2d5c 403d 390e 5ebc
00000040: 7bca 783d da65 df3d 832f 0b3e 4e51 8b3d
00000050: 1dce e33b b6f3 2a3e 5584 ba3d 60b6 a23d
00000060: 71b4 b03e a57b d73c 3f47 903d 1fca 263e
00000070: eab4 043e 30d5 683e 4828 3fbb e4ce 343e
00000080: 3c8b 48bc 5ccb 123e 4424 243e f4f5 863c
00000090: 901e c23b b63d 1d3d 24c8 523c ebc8 fd3d
000000a0: 60e5 4bbd 5e5d ff3c 25d3 193e 49b5 d9bc
000000b0: 55c1 9a3d 9e08 fc3d 2fcc 013e deee 983e
000000c0: ca1d ad3d 5180 ee3d 9be7 173e a23c 073e
000000d0: 5b38 8c3c 303c fdbb 9068 f03d 660f e93d
000000e0: ba56 783c 497b b93c 4a79 303d 967b de3d
000000f0: 7380 473d 85ae 193e aa4e ae3c 34d4 dc3d
00000100: a1ff 93bd 7c09 10be df3e 0dbe 2fbf a93c
00000110: 5d72 06be c1ec a6bd 4aea adbd d126 e03b
00000120: 0509 c5bd 113e 1abe 9843 50bd 3168 edbd
00000130: b109 01be 5d3c f63d 5273 efbc 098b 06be
00000140: cf4d 99bd 71a9 28be b11a 29be 9d0d 05bd
00000150: a257 fbbd 56e8 7abd bff3 dfbd 558f 573d
00000160: 46cd 9cbd 9dd3 febd ed92 1ebe fd4f 94bd
00000170: 8b2d 5ebd 81a6 12bd 7c6f e8bd 5911 00be
00000180: 245f 4fbd 1d90 fabd 9b2f cbbc 8d61 6ebd
00000190: 6ca4 81bd 2454 39bd a240 13be cab3 6c3c
000001a0: fd88 16bd 7d88 14be 1305 0bbe 7e48 11bd
000001b0: d9aa c0bd 77eb e9bd 2bd2 28be 4412 bbbd
000001c0: d8b4 13be 4018 0bbe 1056 b03c 800f 1fbe
000001d0: 35a7 0abe 7bac bd3c ffae b9bd a1f5 27be
000001e0: 0f83 0bbe 94b5 0bbd 06a9 36bc 95ee fabd
000001f0: acaf 0bbe 5b26 c7bd 4ba2 2abd 29b1 9dbd
00000200: d01e adbd 6d0f 2a3d ba4f 0dbd 86db 383c
00000210: a262 b23d 4ef7 933d 744d 55bd d77e 92bd
00000220: 4297 e3bd 84c6 bd3c 2d40 0a3d ce6e 9abd
00000230: d15e c9bc bd19 c2bd 2d6e f2bb a298 8a3b
00000240: 5ce9 183d e353 9f3c e8ea b93c 58fc 3abd
00000250: 57f1 1abd 0552 003c 9dd0 1dbb de98 9f3c
00000260: 6019 a33d 10fe 91bc 3630 163d e3ea 193d
00000270: 4538 17bc b547 33bc 8702 523d 75d8 b5bd
00000280: deed ccbd 6b1e 2d3d fe22 44bd ee24 873d
00000290: 3f4f b33d 815a 693d 9c88 3bbd ce21 cbbc
000002a0: 77a5 4b3d df9e 9e3d c8e1 b6bc 7226 75bd
000002b0: 0bcf 893c 575a 28bc 385c 073d d981 a83a
000002c0: e751 3e3d 1c99 b83d 1474 25bc c247 a43d
000002d0: 3b27 d53c 4d29 82bc 41e7 58bd e1ec 01bd
000002e0: 8454 d23d 0ff1 723d e5dd db3c 972b 74bd
000002f0: d0fe 9bbd 0f08 fa3b 3dc8 a83d 6ee2 b9bd
00000300: ed6d c23c 5d5e c83d 50e7 393d 756a 0a3e
00000310: f744 423d 12a9 c33c 6774 263e 240e 0b3d
00000320: 2c1f 22bc 1761 183e 0c59 8e3d f475 83bd
00000330: d799 353e 8e7a 4abb 66d8 9b3d 41c3 763d
00000340: 19c0 f23d 5875 ec3d ba28 0f3e d9f6 0f3d
00000350: 4bde 723d 0830 213e cb74 4ebd 4b39 a73d
00000360: 7b27 af3e 279e a6bc 9b2c 3d3e 51e0 f0ba
00000370: 112e 3b3e 6c28 923e 5549 973d 7e49 063e
00000380: aee8 0f3e 34db c83d e5a1 463e 45ea d93b
00000390: 4bcc 2a3d 8174 d43c 2853 01bd 05ee db3d
000003a0: 4c74 39bd 10ec 49ba 82df 4a3e a721 d13d
000003b0: e698 3b3e f63f 943d 151c 6e3d f0d0 8c3e
000003c0: 8364 543d 7c4d 083e b1b6 01bd 2de1 933c
000003d0: a3b4 643c 8442 6a3c 2905 a03d d2d7 2c3e
000003e0: 61f4 debc b6f7 3fbd 3bb8 1dbb 31f7 e83d
000003f0: 0715 863c 8037 053e 747c 393d 5108 fa3b

lstm.weight_ih_l1 f4 [256, 64]
0.06835161 -0.019989816 0.07549707 0.010873329 0.0027199066 -0.013282464 0.009109195 0.004840692
0.045108423 -0.0009817933 0.015316406 0.008591233 0.037594147 7.976796e-06 0.022637082 -0.00028824297
-0.040651653 0.06013658 0.014095742 -0.02845775 0.06331016 -0.009043383 -0.044567604 -0.012142497
-0.040242586 0.01784923 -0.007150545 0.01223926 -0.0028616309 -0.033636864 0.007855754 -0.018160904
0.047538266 -0.004400286 -0.028637566 -0.07420415 0.002238195 -0.05736723 0.001668919 -0.014947568
0.04216225 -0.01176307 0.014843685 -0.00022838028 -0.009238005 0.026401322 -0.018238952 -0.026403416
-0.061580803 -0.028047815 -0.014930831 0.0096869785 0.022706458 0.036959298 0.041384093 -0.0021915426
0.024000267 0.013040895 -0.0021439814 -0.054982305 0.01839056 -0.025508037 0.008309664 0.030550981
0.10966975 -0.011763194 0.013532749 0.06873075 0.054095272 -0.023674147 0.025414445 0.06855897
0.119272195 -0.06913563 0.00067928416 0.039131775 0.009632482 0.048324306 0.079544604 0.078581646
-0.014158023 0.012487103 0.049448013 -0.042984363 0.104787245 -0.018484285 -0.06986993 0.0021789619
-0.035069298 -0.022485444 0.026276996 -0.03480105 0.002930978 -0.07045136 0.013996423 -0.058218077
0.052426472 0.002116917 -0.08345754 -0.07916092 0.03750481 -0.053826947 -0.048757765 -0.09390146
0.011720092 -0.04916592 0.051409826 -0.06625094 -0.03225838 0.08695364 0.025539028 -0.06476126
-0.10143244 -0.014904035 -0.028695257 0.019681437 0.07599277 -0.031656124 0.057918098 -0.011768384
-0.011744933 -0.058982108 -0.028574085 -0.024764339 0.03654232 -0.02956969 -0.05899204 0.029877312
0.09243018 -0.019368233 0.026061762 0.052362293 0.006251348 0.00018492619 0.051493596 -0.0013746388
0.07835959 -0.014301027 0.0020878592 0.011511818 0.051346973 0.021635 0.05061974 0.017217856
-0.05692652 0.06007697 0.028496321 -0.05150179 0.06069132 -0.04731353 -0.0802411 0.011443095
-0.0013637159 -0.039019737 0.010082298 -0.020297151 -0.0007651779 -0.035629913 0.04073099 -0.032899804
0.0145912105 -0.04587608 -0.042152863 -0.096496314 0.006025096 -0.08178198 -0.023954246 -0.027436921
0.05108284 -0.024221336 0.04799915 0.0044808034 -0.004053798 0.06348561 0.05138644 -0.011830642
-0.082769014 -0.042422947 0.026309337 0.030270768 0.04408798 -0.0016108121 0.027758125 0.0074972655
0.039925534 -0.05484488 -0.02873384 -0.031671144 -0.0020824722 -0.072438136 -0.031188121 0.015447549
0.04250478 -0.009317565 0.005726862 0.008369839 -0.011954772 -0.013806656 0.019980635 0.00023635948
0.027040906 -0.004650913 -0.00080880505 -0.0015856698 0.020186864 0.008443773 0.006208826 -0.008136041
-0.008749632 -0.0015974647 0.019288493 0.0008206055 0.030977113 -0.013215404 -0.021161022 -0.023246452
-0.009212474 0.0020647214 0.0035212955 -0.005625714 0.0073885163 -0.024429189 0.0026401877 -0.007931961
0.01046357 -0.0019826125 -0.0075755063 -0.030974738 0.0024428682 -0.031372853 -0.016523613 -0.021424163
0.0082985815 -0.0065943385 0.015593024 -0.0058733732 -0.012519696 0.005934067 -0.015117059 -0.011703605
-0.02741588 -0.008846872 -0.024338624 0.014138865 -0.0117579205 -0.0030943025 0.016911639 0.0045510507
-0.008491865 -0.0074093933 -0.012670416 -0.011836832 0.0038083352 -0.002091734 -0.00044908392 -0.015704174
00000000: eefb 8b3d afc1 a3bc 359e 9a3d 0c26 323c
00000010: 7640 323b b19e 59bc bc3e 153c ab9e 9e3b
00000020: 9cc3 383d 84af 80ba aaf1 7a3c 3ec2 0c3c
00000030: 52fc 193d 14d4 0537 6771 b93c 511f 97b9
00000040: 5982 26bd c651 763d d4f1 663c 3a20 e9bc
00000050: c2a8 813d b32a 14bc 858c 36bd 53f1 46bc
00000060: 69d5 24bd 8c38 923c 1e4f eabb 2d87 483c
00000070: 338a 3bbb cfc6 09bd 6cb5 003c 2dc6 94bc
00000080: 7cb7 423d 4630 90bb 5499 eabc 58f8 97bd
00000090: aeae 123b e7f9 6abd a1bf da3a a5e6 74bc
000000a0: 53b2 2c3d e4b9 40bc ed32 733c 5d79 6fb9
000000b0: 005b 17bc 9647 d83c db69 95bc fa4b d8bc
000000c0: 273c 7cbd 88c4 e5bc 72a0 74bc 22b6 1e3c
000000d0: e502 ba3c a262 173d 5e82 293d fc9f 0fbb
000000e0: 359c c43c 7aa9 553c 0a82 0cbb 2035 61bd
000000f0: cda7 963c 3bf6 d0bc 4225 083c 0d46 fa3c
00000100: 899a e03d 69ba 40bc 77b8 5d3c b5c2 8c3d
00000110: 0193 5d3d 49f0 c1bc f431 d03c a568 8c3d
00000120: fb44 f43d fb96 8dbd fd11 323a a448 203d
00000130: 8fd1 1d3c b5ef 453d 48e8 a23d 6aef a03d
00000140: 0df7 67bc b596 4c3c 008a 4a3d 5f10 30bd
00000150: b29a d63d 5b6c 97bc f717 8fbd eacc 0e3b
00000160: d3a4 0fbd 6533 b8bc db42 d73c 8c8b 0ebd
00000170: a715 403b cd48 90bd 4151 653c 1476 6ebd
00000180: 24bd 563d f9bb 0a3b c9eb aabd 1f1f a2bd
00000190: a59e 193d a579 5cbd 39b6 47bd 694f c0bd
000001a0: a105 403c 3462 49bd 1c93 523d 93ae 87bd
000001b0: 5d21 04bd c014 b23d 3937 d13c 8da1 84bd
000001c0: d0bb cfbd 0e30 74bc 5112 ebbc f73a a13c
000001d0: 19a2 9b3d daa9 01bd 873b 6d3d 2ed0 40bc
000001e0: d26d 40bc 3997 71bd 3314 eabc 95de cabc
000001f0: 66ad 153d 223c f2bc a3a1 71bd 44c1 f43c
00000200: 094c bd3d 21aa 9ebc 7a7f d53c d879 563d
00000210: 1cd8 cc3b bfe8 4139 f3ea 523d 392d b4ba
00000220: fe7a a03d db4e 6abc 77d4 083b 109c 3c3c
00000230: 3451 523d e23b b13c a556 4f3d 760c 8d3c
00000240: c82b 69bd 4513 763d 1e71 e93c 8af3 52bd
00000250: 7697 783d d5cb 41bd 7255 a4bd d27b 3b3c
00000260: b6be b2ba 29d3 1fbd 3930 253c 3646 a6bc
00000270: 3896 48ba acf0 11bd 8ad5 263d f2c1 06bd
00000280: f90f 6f3c 8ee8 3bbd 7ba8 2cbd dc9f c5bd
00000290: 2b6e c53b 507d a7bd b23b c4bc 65c3 e0bc
000002a0: 3d3c 513d d36b c6bc c29a 443d b4d3 923b
000002b0: b9d5 84bb be04 823d 967a 523d 4fd5 41bc
000002c0: cd82 a9bd afc3 2dbd ae86 d73c 67fa f73c
000002d0: 9995 343d e321 d3ba 0265 e33c 9fab f53b
000002e0: f588 233d 06a5 60bd 3b63 ebbc 9ab9 01bd
000002f0: 167a 08bb 725a 94bd 3b7e ffbc b717 7d3c
00000300: 7e19 2e3d b3a8 18bc 66a8 bb3b a621 093c
00000310: f3dd 43bc 5035 62bc 6eae a33c 44d7 7739
00000320: e484 dd3c b066 98bb fd05 54ba 40d6 cfba
00000330: ec5e a53c c057 0a3c 6873 cb3b 084d 05bc
00000340: 9e5a 0fbc 0562 d1ba e702 9e3c e71d 573a
00000350: b7c3 fd3c 6c85 58bc e159 adbc 586f bebc
00000360: ebef 16bc 4750 073b 89c5 663b e957 b8bb
00000370: 5e1b f23b b91f c8bc 0007 2d3b 0ef5 01bc
00000380: 656f 2b3c b8ee 01bb f43b f8bb bcbe fdbc
00000390: 8718 203b d280 00bd 875c 87bc ba81 afbc
000003a0: c6f6 073c 5215 d8bb e279 7f3c 6d75 c0bb
000003b0: 691f 4dbc 9072 c23b 8bad 77bc 7ac0 3fbc
000003c0: 4497 e0bc 78f2 10bc cb61 c7bc b3a6 673c
000003d0: 4ba4 40bc c8c9 4abb 478a 8a3c fb20 953b
000003e0: 7721 0bbc 7fca f2bb 9497 4fbc 46ef 41bc
000003f0: 4395 793b 7915 09bb 0673 ebb9 0aa6 80bc

lstm.weight_hh_l1 f4 [256, 64]
0.030842599 -0.013642154 -0.003474292 -0.028217876 -0.041887984 0.061204 -0.07245346 0.018491838
-0.05298313 -0.054931834 0.060719732 -0.0055140015 0.017552854 -0.049305614 -0.012139419 -0.04586075
0.04259876 -0.019117178 -0.043446064 -0.05324726 0.027514057 -0.030936563 -0.02463871 0.054655552
0.0055410787 -0.048757482 -0.016911436 -0.06840229 0.072207056 0.04497517 -0.025711615 -0.012807807
0.042036913 0.06804374 0.020104172 0.015652277 -0.013380721 -0.03596049 -0.006665061 -0.014419838
0.05059233 0.0077357576 0.033926554 0.04651121 0.014818682 0.032269254 0.04054754 -0.02004604
0.014639584 -0.014418647 0.023643922 -0.0021628165 -0.04138178 -0.08145091 0.044507068 0.0205738
0.047608767 -0.031141764 0.011527957 0.025509108 0.07737753 -0.051654827 -0.062392093 -0.03619796
-0.047361758 0.011972125 -0.04440071 0.050378278 -0.054959744 0.006480402 -0.079983175 0.004134256
-0.013303704 -0.07444102 0.03544572 -0.040966615 0.02807995 -0.036646906 -0.036269404 0.021388222
-0.08302518 0.098809965 -0.056074597 -0.032352153 -0.045998137 0.015719337 0.05139586 0.030932046
0.085918635 0.056585383 0.042237267 0.072404824 0.056580376 -0.096752964 0.009715267 -0.08842296
-0.03922684 0.07507632 0.037577562 -0.0035918395 -0.07098721 -0.050962098 -0.030758224 -0.042811617
0.08220904 -0.07068028 -0.037414804 -0.038075585 -0.034244124 0.017615167 -0.006876812 0.053707898
0.0006853478 0.038170747 -0.0661584 0.056172773 -0.02525309 -0.048528902 0.026176384 0.011828565
0.059558064 -0.078309394 -0.038298614 0.01633536 -0.02469943 0.028745275 0.05034963 0.041244477
-0.026064482 -0.0017196765 0.021308433 0.04478535 -0.0244876 -0.013388359 -0.019195804 -0.06592655
-0.03823057 -0.05554794 0.019417321 0.05970417 0.008582048 0.019783517 -0.03526223 0.007362749
0.08035313 0.031446315 -0.027986625 -0.07929921 -0.0015598335 0.043752242 -0.0074431505 -0.058313288
0.03777906 -0.06398086 0.061481457 -0.041633423 0.02285597 0.027909128 -0.03909346 -0.021452127
0.02728099 0.04278438 0.02079933 -0.07734212 0.016606279 -0.022536641 -0.028859358 -0.01767474
-0.0083474545 -0.026658213 0.0058987527 -0.03927211 0.01951564 0.014211123 0.0224565 0.0101054525
-0.018551204 0.034079883 -0.0749912 0.08006311 -0.018514289 -0.063211605 -0.015628202 -0.037009325
-0.045847148 -0.03981416 0.05179453 -0.05051202 0.05787431 0.04459283 -0.049448036 -0.03219615
0.011722057 0.025700022 0.016877964 0.0035284376 0.0011921894 -0.045936387 0.01241065 0.019041615
0.035553202 0.03879637 -0.002186398 -0.016762273 -0.032694153 0.029484255 0.017602874 -0.02946405
0.011188148 -4.5878067e-05 0.016933272 -0.0035792291 0.038804352 -0.04086375 0.02323754 -0.032171324
-0.029471388 -0.028510883 -0.0597501 -0.03214533 -0.014838756 0.01691742 0.0018336012 0.03412039
0.013831572 0.027455496 -0.020421803 0.026983216 -0.023230722 -0.023006683 -0.0059599276 -0.03362409
-0.022126205 -0.02396431 0.035091896 -0.0052341498 0.018802037 -0.03142007 -0.008505243 -0.01646216
0.007012186 0.01882198 0.030358138 0.03564836 0.026082166 0.010433047 -0.032012124 0.04069312
-0.031796455 0.022491684 -0.028778959 -0.03574022 0.024223503 0.015393881 -0.042645395 0.006426486
00000000: 9ea9 fc3c 5783 5fbc f3b0 63bb 2d29 e7bc
00000010: bc92 2bbd 0cb1 7a3d 7b62 94bd 327c 973c
00000020: d704 59bd 3400 61bd 41b5 783d ccae b4bb
00000030: 01cb 8f3c aff4 49bd 6ae4 46bc 7bd8 3bbd
00000040: 0a7c 2e3d a19b 9cbc 80f4 31bd cd19 5abd
00000050: 2965 e13c ad6e fdbc 1fd7 c9bc 80de 5f3d
00000060: f091 b53b edb5 47bd da89 8abc 8016 8cbd
00000070: 4be1 933d e237 383d 2aa1 d2bc d6d7 51bc
00000080: e62e 2c3d 845a 8b3d 81b1 a43c 3439 803c
00000090: d03a 5bbc 4f4b 13bd 9666 dabb 2f41 6cbc
000000a0: e739 4f3d 3d7c fd3b 92f6 0a3d 8a82 3e3d
000000b0: 0fca 723c c42c 043d 2d15 263d 9837 a4bc
000000c0: deda 6f3c 303c 6cbc e6b0 c13c 0abe 0dbb
000000d0: f17f 29bd bccf a6bd 0b4d 363d 638a a83c
000000e0: 6901 433d 031d ffbc c2df 3c3c 7af8 d03c
000000f0: 1c78 9e3d 0394 53bd da8e 7fbd 5044 14bd
00000100: 67fe 41bd bb26 443c 85dd 35bd 7459 4e3d
00000110: 781d 61bd 8d59 d43b 38ce a3bd a778 873b
00000120: c7f7 59bc 8974 98bd 882f 113d 9ccc 27bd
00000130: ec07 e63c 111b 16bd 3a8f 14bd 5a36 af3c
00000140: 1b09 aabd e15c ca3d 7aae 65bd b183 04bd
00000150: 8b68 3cbd d7c5 803c 7784 523d 3465 fd3c
00000160: 1cf6 af3d 13c6 673d fc00 2d3d fb48 943d
00000170: d3c0 673d 6b26 c6bd c92c 1f3c 1917 b5bd
00000180: 53ac 20bd 9dc1 993d eeea 193d 1165 6bbb
00000190: be61 91bd a2bd 50bd acf8 fbbc 3c5b 2fbd
000001a0: 375d a83d d3c0 90bd 4440 19bd 25f5 1bbd
000001b0: 9143 0cbd af4d 903c e156 e1bb d0fc 5b3d
000001c0: eaa8 333a ee58 1c3d 0e7e 87bd 6c15 663d
000001d0: 91df cebc 3ec6 46bd db6f d63c 99cc 413c
000001e0: 28f3 733d ad60 a0bd 02df 1cbd bcd1 853c
000001f0: 7656 cabc 367b eb3c 6a3b 4e3d f8ef 283d
00000200: 2e85 d5bc c566 e1ba 068f ae3c d870 373d
00000210: 389a c8bc d95a 5bbc 8540 9dbc 8004 87bd
00000220: a897 1cbd 3d86 63bd 1311 9f3c 5c8c 743d
00000230: b89b 0c3c 0b11 a23c 216f 10bd 3743 f13b
00000240: 2f90 a43d dacd 003d 3544 e5bc a067 a2bd
00000250: 5473 ccba 8d35 333d ace5 f3bb ead9 6ebd
00000260: 37be 1a3d 6608 83bd fbd3 7b3d cf87 2abd
00000270: 713c bb3c afa1 e43c 7720 20bd 5fbc afbc
00000280: 627c df3c ad3e 2f3d 5b63 aa3c 8c65 9ebd
00000290: e409 883c c39e b8bc 766a ecbc 9eca 90bc
000002a0: c3c3 08bc 5362 dabc 534a c13b cbdb 20bd
000002b0: 43df 9f3c c5d5 683c b2f6 b73c 5791 253c
000002c0: b2f8 97bc 5997 0b3d fc94 99bd 21f8 a33d
000002d0: 47ab 97bc 1675 81bd b706 80bc 1797 17bd
000002e0: 38ca 3bbd 2c14 23bd 8026 543d b1e5 4ebd
000002f0: 9d0d 6d3d f9a6 363d 068a 4abd 1ce0 03bd
00000300: df0d 403c da88 d23c a843 8a3c 5c3d 673b
00000310: 3d43 9c3a cb27 3cbd 0a56 4b3c 29fd 9b3c
00000320: 3ca0 113d f1e8 1e3d ac49 0fbb 0951 89bc
00000330: 4eea 05bd f788 f13c e733 903c 975e f1bc
00000340: 7e4e 373c 336d 40b8 a5b7 8a3c 8091 6abb
00000350: 50f1 1e3d bf60 27bd a75c be3c 14c6 03bd
00000360: fb6d f1bc a88f e9bc 85bc 74bd d2aa 03bd
00000370: 411e 73bc 6796 8a3c 7255 f03a d2c1 0b3d
00000380: d19d 623c 59ea e03c a04b a7bc e80b dd3c
00000390: 5b4e bebc 8378 bcbc 7f4b c3bb 6ab9 09bd
000003a0: 0442 b5bc cd50 c4bc 85bc 0f3d 3b83 abbb
000003b0: bb06 9a3c 55b2 00bd 9359 0bbc a7db 86bc
000003c0: 7bc6 e53b 8e30 9a3c a1b1 f83c 0404 123d
000003d0: 44aa d53c 5fef 2a3c 251f 03bd d4ad 263d
000003e0: 003d 02bd 7b40 b83c dac1 ebbc 5664 12bd
000003f0: 5e70 c63c 9e36 7c3c f0ac 2ebd 4695 d23b

lstm.bias_ih_l1 f4 [256]
-0.045349017 -0.05281733 0.04363431 -0.06438067 0.029124137 0.101261534 0.038384173 -0.044773642
0.096537404 -0.042238552 0.046769064 0.02552489 0.064917795 -0.004876154 -0.006889009 0.024733985
-0.083997145 -0.061050862 -0.062248293 0.10143208 0.12481891 0.08295905 0.03624493 0.15828331
-0.040825862 0.051884085 0.098646365 0.098174915 0.028263178 0.019730218 -0.070878655 0.00872096
0.021084616 -0.037549645 -0.036189433 -0.07659981 -0.08122697 -0.0235998 -0.0031078828 0.08520793
-0.042651843 -0.03792905 -0.006262429 -0.024055874 0.018517643 0.12466502 0.11761859 0.0759192
0.014775841 0.02487841 -0.07156966 0.14228669 0.101838805 0.1034395 0.11763544 -0.09204653
0.07659388 0.049442932 -0.03431381 0.06387437 -0.036716696 -0.040548306 0.018644178 0.110209085
-0.028870532 -0.061718654 -0.057578713 -0.0093363 -0.014306408 -0.035940796 0.039114628 -0.05975647
-0.019151231 0.02935595 -0.011357073 0.012082812 -0.040729776 0.011325522 -0.0075538247 0.027948456
-0.05462293 0.008634299 -0.077774175 -0.072932675 0.006444805 -0.024015075 0.104528226 0.016843323
0.0016567467 0.09850857 -0.10314475 -0.0125149395 -0.084822595 -0.05847604 -0.007995382 0.033253342
0.03061766 -0.037944928 -0.065167844 0.056586787 0.055297483 -0.0046815695 0.084410764 -0.07826153
0.0029524104 -0.07144079 0.05206416 -0.052664813 0.008621814 -0.04827075 -0.008120507 -0.06497595
0.14089528 0.120934926 -0.08248366 -0.0779403 0.08524558 0.032635577 -0.051122393 -0.0762391
-0.08222255 0.051810388 0.07527565 0.1429797 -0.052943397 -0.022413839 -0.02768276 0.0068346383
0.02130204 0.067287475 0.032570966 0.018946016 0.065556146 0.02580365 -0.036551636 0.030508256
0.031536825 0.028796295 0.09065365 -0.052741155 0.030086359 -0.02803648 0.03176942 0.080806434
0.057288267 0.021990994 0.014925586 0.084877595 -0.061174996 0.03369543 0.067526385 0.09706067
0.0058552343 0.027701056 0.10153359 -0.020198388 -0.040347118 0.020555746 0.07431343 0.09550612
-0.08348342 -0.026035264 -0.064641386 0.09596974 0.042246703 -0.0026972569 0.019307086 -0.017656839
-0.08225362 0.051921796 -0.011935725 0.016929515 0.026543442 0.0049015298 -0.041279294 -0.07231956
0.03593081 0.024751592 0.0087737255 -0.004333517 0.07901524 -0.03723766 -0.039903957 -0.020555308
0.03765675 -0.07139221 0.021914242 -0.04537051 0.006829999 -0.09044328 0.058021057 -0.057578836
-0.044656288 0.09641464 -0.020063909 -0.048983667 -0.06616308 0.08887448 0.103905775 0.101615086
-0.07952427 -0.06769588 0.020732302 0.07160383 0.024059411 0.064890794 -0.02855671 0.08319985
0.09073765 0.040674727 -0.010793566 -0.027606437 0.025794547 -0.011201213 -0.07116566 0.11724916
-0.035624277 -0.02182756 0.045608137 -0.057336506 0.029717376 0.014543582 0.018802859 -0.018354641
0.13032646 0.06212234 -0.10370503 0.017355964 0.10163207 -0.04249694 -0.049938582 0.032096595
-0.02476013 -0.08039894 0.0073630405 -0.017642347 -0.09739619 0.13959734 0.063420735 0.018759722
-0.001842288 -0.06849222 -0.09061995 0.079624794 -0.049265772 0.09413981 -0.0012076149 0.0924272
0.09176297 0.05121314 -0.08423556 -0.022802772 0.13269751 0.014753075 0.06576397 0.029612774
00000000: e4bf 39bd fc56 58bd e4b9 323d 03da 83bd
00000010: be95 ee3c 3562 cf3d b938 1d3d 9164 37bd
00000020: 67b5 c53d 5502 2dbd eb90 3f3d 9319 d13c
00000030: 9ff3 843d 25c8 9fbb 32bd e1bb ed9e ca3c
00000040: b206 acbd 7810 7abd 11f8 7ebd 9fbb cf3d
00000050: 0fa1 ff3d 6fe6 a93d 9075 143d 0515 223e
00000060: 0539 27bd 6884 543d 1b07 ca3d ee0f c93d
00000070: 2e88 e73c 44a1 a13c d428 91bd 5be2 0e3c
00000080: a5b9 ac3c a8cd 19bd 5f3b 14bd 5ce0 9cbd
00000090: 535a a6bd 5e54 c1bc 9fad 4bbb 7f81 ae3d
000000a0: b3b3 2ebd 7e5b 1bbd 1035 cdbb d310 c5bc
000000b0: 50b2 973c 6050 ff3d 04e2 f03d 877b 9b3d
000000c0: 5e16 723c cfcd cb3c 1d93 92bd 9ab3 113e
000000d0: dd90 d03d 17d8 d33d d9ea f03d e482 bcbd
000000e0: 41dd 9c3d ac84 4a3d a38c 0cbd 91d0 823d
000000f0: 3f64 16bd fb15 26bd adbb 983c 4db5 e13d
00000100: e581 ecbc b3cc 7cbd a8d7 6bbd 48f7 18bc
00000110: 6d65 6abc a836 13bd a936 203d 33c3 74bd
00000120: 0be3 9cbc e47b f03c 0413 3abc fdf6 453c
00000130: 44d4 26bd af8e 393c 1386 f7bb 29f4 e43c
00000140: 4bbc 5fbd e076 0d3c 1148 9fbd ba5d 95bd
00000150: f12e d33b 43bb c4bc e512 d63d 02fb 893c
00000160: 3227 d93a dcbe c93d 8e3d d3bd 760b 4dbc
00000170: 78b7 adbd 9284 6fbd 10ff 02bc a834 083d
00000180: e3d1 fa3c 246c 1bbd b876 85bd 8cc7 673d
00000190: 9d7f 623d da67 99bb 8ddf ac3d 9547 a0bd
000001a0: 3a7d 413b 8d4f 92bd 3b41 553d 0fb7 57bd
000001b0: 8242 0d3c 8db7 45bd e00b 05bc 1c12 85bd
000001c0: da46 103e bbac f73d 31ed a8bd 2a9f 9fbd
000001d0: 3c95 ae3d e2ac 053d b765 51bd 3f23 9cbd
000001e0: 4c64 a8bd 2137 543d 1f2a 9a3d 4569 123e
000001f0: 2ddb 58bd 3a9d b7bc f5c6 e2bc 1af5 df3b
00000200: 9e81 ae3c 04ce 893d 2269 053d ad34 9b3c
00000210: 4d42 863d 2d62 d33c 2bb7 15bd 73ec f93c
00000220: c22c 013d 35e6 eb3c 9fa8 b93d 1c07 58bd
00000230: ab77 f63c c3ac e5bc a720 023d d87d a53d
00000240: 1aa7 6a3d 7526 b43c 728a 743c 4ed4 ad3d
00000250: a292 7abd 3804 0a3d 464b 8a3d bfc7 c63d
00000260: 44dd bf3b 53ed e23c d8f0 cf3d 1777 a5bc
00000270: 0543 25bd 8664 a83c a431 983d b698 c33d
00000280: 5bf9 aabd e847 d5bc b462 84bd c88b c43d
00000290: e10a 2d3d 76c4 30bb e529 9e3c 13a5 90bc
000002a0: 9674 a8bd f3ab 543d 0f8e 43bc c4af 8a3c
000002b0: a271 d93c 039d a03b 7a14 29bd 471c 94bd
000002c0: 2f2c 133d dac3 ca3c acbf 0f3c 2d00 8ebb
000002d0: bed2 a13d 8486 18bd 5572 23bd 9b63 a8bc
000002e0: f73d 1a3d 1436 92bd 7f85 b33c 6ed6 39bd
000002f0: 2fce df3b 543a b9bd 7da7 6d3d c9d7 6bbd
00000300: 83e9 36bd 0a75 c53d 115d a4bc 19a3 48bd
00000310: 8280 87bd d303 b63d 8dcc d43d 921b d03d
00000320: 9fdd a2bd 23a4 8abd cad6 a93c 07a5 923d
00000330: 3e18 c53c 77e5 843d c3ef e9bc af64 aa3d
00000340: a9d4 b93d 8b9a 263d 7fd7 30bc e526 e2bc
00000350: 164f d33c 4b85 37bc 4dbf 91bd 5420 f03d
00000360: c3ea 11bd b6cf b2bc 99cf 3a3d afd9 6abd
00000370: db71 f33c 3448 6e3c 7408 9a3c 795c 96bc
00000380: 4d74 053e ff73 7e3d 4e63 d4bd 182e 8e3c
00000390: 7a24 d03d 4511 2ebd 668c 4cbd b877 033d
000003a0: c2d5 cabc 33a8 a4bd a945 f13b af86 90bc
000003b0: a777 c7bd 9bf2 0e3e bbe2 813d fdad 993c
000003c0: ed78 f1ba a645 8cbd f496 b9bd 5312 a33d
000003d0: e8ca 49bd 5fcc c03d d548 9eba 794a bd3d
000003e0: 39ee bb3d dfc4 513d b183 acbd e1cc babc
000003f0: dbe1 073e e2b6 713c 43af 863d 7d96 f23c
